…
nt_dim=20, learn_emb=True, lr=0.0001, multiplier=0.125, n=8000, niters=2000, nonormalize=False, norm=True, num_ref_points=128, old_split=1, quantization=0.016, rec_hidden=256, save=1, seed=0, split=0, std=0.01) 53348
Total dataset size: 4000
tensor(355.) tensor(92.) tensor(107.)
torch.Size([2560, 203, 83]) torch.Size([2560, 1]) torch.Size([640, 190, 83]) torch.Size([640, 1]) torch.Size([800, 168, 83]) torch.Size([800, 1])
parameters: 19390 3865 4034
enc_mtan_rnn(
  (att): multiTimeAttention(
    (linears): ModuleList(
      (0-1): 2 x Linear(in_features=16, out_features=16, bias=True)
      (2): Linear(in_features=82, out_features=32, bias=True)
    )
  )
  (gru_rnn): BidirectionalGRU(
    (forward_gru): GRUCell()
    (backward_gru): GRUCell()
  )
  (hiddens_to_z0): Sequential(
    (0): Linear(in_features=64, out_features=50, bias=True)
    (1): ReLU()
    (2): Linear(in_features=50, out_features=4, bias=True)
  )
  (embedder1): mtan_time_embedder(
    (periodic): Linear(in_features=1, out_features=15, bias=True)
    (linear): Linear(in_features=1, out_features=1, bias=True)
  )
  (embedder2): mtan_time_embedder(
    (periodic): Linear(in_features=1, out_features=15, bias=True)
    (linear): Linear(in_features=1, out_features=1, bias=True)
  )
)
dec_mtan_rnn(
  (att): multiTimeAttention(
    (linears): ModuleList(
      (0-1): 2 x Linear(in_features=16, out_features=16, bias=True)
      (2): Linear(in_features=12, out_features=12, bias=True)
    )
  )
  (gru_rnn): BidirectionalGRU(
    (forward_gru): GRUCell()
    (backward_gru): GRUCell()
  )
  (z0_to_obs): Sequential(
    (0): Linear(in_features=12, out_features=50, bias=True)
    (1): ReLU()
    (2): Linear(in_features=50, out_features=41, bias=True)
  )
  (embedder1): mtan_time_embedder(
    (periodic): Linear(in_features=1, out_features=15, bias=True)
    (linear): Linear(in_features=1, out_features=1, bias=True)
  )
  (embedder2): mtan_time_embedder(
    (periodic): Linear(in_features=1, out_features=15, bias=True)
    (linear): Linear(in_features=1, out_features=1, bias=True)
  )
)
create_classifier(
  (gru_rnn): reverseGru(
    (gru_cell): GRUCell()
  )
  (classifier): Sequential(
    (0): Linear(in_features=32, out_features=12, bias=True)
    (1): ReLU()
    (2): Linear(in_features=12, out_features=12, bias=True)
    (3): ReLU()
    (4): Linear(in_features=12, out_features=2, bias=True)
  )
)
=============================================
1
-inf
Saving state dict of best val auc:  0.47048556013963816
=============================================
Iter: 1, recon_loss: 834.8139, ce_loss: 0.6768, acc: 0.8039, mse: 0.1686, val_loss: 0.6651, val_acc: 0.8562, test_acc: 0.8638, test_auc: 0.4870
=============================================
2
0.47048556013963816
…
